mp07/model_ckpt.pkl (torch, 5418 bytes, 1 tensors)

1.weight f4 [1, 960]
00000000: 0af6 4443 10e7 4443 0bd9 4443 980c 4543
00000010: 95ec 4543 6335 4743 7e32 4a43 5105 4a43
00000020: 840b 4443 7ff9 4343 9c15 4443 85ff 4343
00000030: 3218 4543 2f48 4643 ec34 4a43 13e5 4a43
00000040: 8801 4443 66e1 4343 8df2 4343 a9f3 4343
00000050: 5d12 4543 b045 4643 d045 4843 f229 4b43
00000060: 5517 4343 3ee6 4243 c017 4343 e30a 4343
00000070: 9c20 4443 3825 4643 1644 4843 a11c 4843
00000080: 85d6 4243 3efb 4243 382f 4343 bdf4 4243
00000090: e6f5 4343 8637 4643 6ce9 4743 bc07 4843
000000a0: 4fdd 4343 14d6 4343 74f0 4343 791b 4443
000000b0: 0426 4543 6623 4643 992a 4843 112b 4943
000000c0: ade8 4343 8be0 4343 54de 4343 25f1 4343
000000d0: 4bf8 4443 a3ff 4543 76f0 4943 c118 4b43
000000e0: 57d3 4443 87e8 4443 13cf 4443 38d6 4443
000000f0: 380c 4643 d918 4743 a7ef 4943 1d35 4a43
00000100: 65f1 b841 d7cf bf41 55fc c041 e98b c241
00000110: b429 c741 b03d c141 ea84 c041 6f75 b941
00000120: ac4d c041 0c6c c841 32dc c641 1a71 c641
00000130: ec48 c741 f950 cb41 fc15 c941 822e c041
00000140: 8de6 be41 3516 c741 d87d cb41 6382 ca41
00000150: 0eb8 ca41 70d2 cc41 b03e cb41 4d39 c141
00000160: 8770 c341 97dd c741 8687 ca41 a8f8 cb41
00000170: ba82 cb41 0549 cb41 f02c c841 09ca c541
00000180: 4ab9 c341 4332 c741 93cb ca41 c203 cc41
00000190: 1537 cb41 72d4 cb41 1999 c841 4699 c441
000001a0: 8b4b c141 6152 c841 89b2 ca41 cdb1 ca41
000001b0: f32e cc41 59c2 cb41 830a c841 6fbf c141
000001c0: 3991 bf41 7720 c741 cea8 c741 e714 c741
000001d0: 342c c641 65d8 c641 6dd8 c841 6844 c141
000001e0: 4e86 b941 95e5 bf41 32b4 be41 4b74 c341
000001f0: a8c8 c341 ae4f c041 a9a1 c141 7bc8 b641
00000200: f7dc e340 0e85 0241 132d 0341 e112 0241
00000210: 9cb9 0141 d878 0241 6a48 fb40 be6d e140
00000220: dbbb 0141 b6d7 1241 d847 1341 24b9 1b41
00000230: d09d 1141 d584 1e41 61c5 1b41 36e2 0241
00000240: 2a9d fc40 4c25 0f41 82fa 1741 83f5 1a41
00000250: ed51 2241 e53f 2341 762b 1141 8a04 0241
00000260: 05b4 0041 b505 1241 f7dd 1f41 6c4f 2341
00000270: c293 1f41 5d44 2041 ed57 1141 2b79 0341
00000280: 2922 0041 51fb 1041 6f61 2041 61ab 2341
00000290: eab3 1e41 cac5 1c41 4772 1241 4c5c 0141
000002a0: 1cb0 0041 4e2c 0f41 6ea0 1941 dcff 1541
000002b0: 21c1 2341 bd8f 2341 0706 0f41 c121 ff40
000002c0: f943 0141 6be4 0e41 3a8f 0f41 5e4a 1741
000002d0: e3ca 1341 987e 2041 9eb3 1b41 5a36 0241
000002e0: 2263 e440 0ac5 fe40 8a41 fc40 8f83 0141
000002f0: 7438 0341 acf3 0241 d028 0341 953b e440
00000300: d8fa 8040 288b a740 a661 c340 96af c340
00000310: 972d c640 fe14 c740 1680 9c40 3be3 7f40
00000320: 3c6d a640 8c44 e240 b06f 1041 d5d6 1641
00000330: a23f 1141 3d30 1641 25cf df40 6655 a340
00000340: 8036 c540 028a 1341 e052 2241 fcaf 2841
00000350: 5d1b 2741 0b14 1e41 d841 1341 bd99 c540
00000360: 8272 be40 0c47 1141 38fa 2841 9925 2e41
00000370: 49c0 2f41 ce9c 2641 ab17 1941 33d1 c540
00000380: ba32 c740 92d7 1241 63e3 2741 7569 2d41
00000390: 0e12 2f41 d942 2941 25e4 1641 2791 c640
000003a0: 8c6b c440 1f38 0d41 d841 2241 b4a9 2841
000003b0: d0ef 2841 751b 2041 4cc8 1241 70b9 c740
000003c0: d987 a640 bef8 e240 6a48 1041 e841 1a41
000003d0: 41ad 0d41 0b24 1a41 c674 e640 e1dd a440
000003e0: a49a 8440 c5c3 a740 240c be40 efd7 c640
000003f0: 8f19 bb40 692c c640 2c56 a040 8947 8540
196.96109 196.90259 196.84782 197.0492 197.92415 199.20854 202.19724 202.02077
196.04498 195.9746 196.08441 195.99812 197.09451 198.28197 202.20673 202.89482
196.00598 195.88046 195.94746 195.9518 197.07173 198.27222 200.2727 203.16385
195.09114 194.89938 195.09277 195.04253 196.12738 198.14539 200.26596 200.11183
194.83797 194.98141 195.18445 194.95601 195.96054 198.21689 199.9118 200.03021
195.86449 195.83624 195.93927 196.10732 197.1485 198.13828 200.1664 201.16823
195.90889 195.87712 195.86847 195.94197 196.9699 197.99858 201.9393 203.0967
196.82555 196.90831 196.80888 196.83679 198.04773 199.09706 201.93614 202.20747
23.117868 23.976484 24.123209 24.318316 24.895363 24.15512 24.0649 23.18234
24.037926 25.052757 24.857517 24.805225 24.910606 25.414537 25.135735 24.022709
23.862574 24.885843 25.436447 25.313665 25.33987 25.602753 25.40561 24.152979
24.429945 24.983198 25.316174 25.496414 25.438831 25.410654 25.021942 24.72365
24.465473 24.899542 25.349401 25.501835 25.401896 25.478733 25.074755 24.57484
24.161886 25.040224 25.337175 25.336817 25.522924 25.469896 25.005133 24.218473
23.94591 24.890852 24.957424 24.885206 24.771584 24.855661 25.105677 24.158401
23.190578 23.9871 23.837986 24.431784 24.472977 24.038906 24.203936 22.84789
7.1207232 8.157484 8.198504 8.129609 8.107815 8.154503 7.8525896 7.0446463
8.108363 9.177664 9.20504 9.7327 9.101028 9.90743 9.735688 8.180227
7.894185 8.946606 9.498659 9.684939 10.145001 10.203099 9.073111 8.126108
8.04395 9.126393 9.991691 10.20689 9.973574 10.01669 9.083966 8.217082
8.00834 9.061357 10.0237875 10.229341 9.918924 9.798288 9.1529 8.085033
8.042995 8.948317 9.601667 9.374966 10.234651 10.222592 8.9389715 7.9728703
8.079095 8.930766 8.972467 9.455656 9.237033 10.030907 9.731352 8.138269
7.137101 7.9615526 7.8830004 8.094619 8.2012825 8.18449 8.197464 7.132273
4.0306206 5.235737 6.10567 6.115184 6.193065 6.2213125 4.8906355 3.998244
5.2008343 7.0708675 9.027267 9.427449 9.078035 9.386777 6.994036 5.1041746
6.162903 9.221193 10.145233 10.542965 10.4441805 9.879893 9.203575 6.175017
5.951478 9.079845 10.561089 10.884179 10.984445 10.413282 9.568278 6.181787
6.224942 9.177629 10.493014 10.838246 10.941908 10.57882 9.430699 6.205219
6.1381283 8.826201 10.141075 10.541431 10.558548 10.006703 9.173901 6.2413864
5.204083 7.092864 9.017679 9.64109 8.854798 9.6338 7.2017546 5.152085
4.143877 5.2426476 5.938982 6.213859 5.84687 6.192921 5.010519 4.1649823
