mp07/model_ckpt.pth (torch, 5418 bytes, 1 tensors)

1.weight f4 [1, 960]
0	0x4344fd7c	196.99017
1	0x4344fc36	196.9852
2	0x4344ec00	196.92188
3	0x43450ab2	197.04178
4	0x4345ef1e	197.93405
5	0x43470dff	199.05467
6	0x434a177e	202.09177
7	0x4349ff58	201.99744
8	0x434400e0	196.00342
9	0x4343fced	195.98799
10	0x434405d0	196.0227
11	0x4343ff14	195.9964
12	0x434507f3	197.03105
13	0x434631d8	198.1947
14	0x434a1f0e	202.1213
15	0x434add26	202.86386
16	0x4343fedf	195.99559
17	0x4343f320	195.9497
18	0x4343fb99	195.9828
19	0x4343faf9	195.98036
20	0x4345033d	197.01265
21	0x4346446c	198.26727
22	0x43485b68	200.35706
23	0x434b25e8	203.14807
24	0x4343041b	195.01604
25	0x4342f3d0	194.9524
26	0x4343035d	195.01314
27	0x4343008c	195.00214
28	0x43440b69	196.04457
29	0x4346115c	198.06781
30	0x43488438	200.51648
31	0x4348147b	200.08
32	0x4342e8bc	194.90912
33	0x4342fbe6	194.98398
34	0x43430d25	195.05135
35	0x4342fb64	194.982
36	0x4343f87d	195.97066
37	0x434632bc	198.19818
38	0x4347d6a0	199.83838
39	0x4347e84f	199.90746
40	0x4343eec8	195.93274
41	0x4343e9bc	195.91302
42	0x4343f8dd	195.97212
43	0x434405bc	196.0224
44	0x43450af7	197.04283
45	0x4346122c	198.07098
46	0x43481eee	200.12082
47	0x43492425	201.14119
48	0x4343f870	195.97046
49	0x4343f632	195.9617
50	0x4343f53c	195.95795
51	0x4343f94e	195.97385
52	0x4344fb04	196.98053
53	0x4345f9a4	197.97516
54	0x4349e735	201.90315
55	0x434b0f99	203.06093
56	0x4344f6d4	196.96417
57	0x4344f8e0	196.97217
58	0x4344e1ab	196.88152
59	0x4344ec8e	196.92404
60	0x4346034b	198.01286
61	0x434708b4	199.034
62	0x4349efa2	201.93607
63	0x434a3234	202.1961
64	0x41b8573a	23.042591
65	0x41bfeaa5	23.989573
66	0x41c08766	24.066113
67	0x41c33819	24.402391
68	0x41c7713c	24.93029
69	0x41c11ba4	24.138496
70	0x41c0217b	24.016348
71	0x41b87d0e	23.061062
72	0x41c00e35	24.006937
73	0x41c81fe9	25.015581
74	0x41c789b0	24.94223
75	0x41c73e2a	24.905354
76	0x41c78060	24.937683
77	0x41cba3a1	25.454897
78	0x41c8805e	25.06268
79	0x41bff85c	23.99627
80	0x41bf8d16	23.94389
81	0x41c7d07e	24.976803
82	0x41cbce08	25.475601
83	0x41cabbea	25.341755
84	0x41cacbfa	25.349598
85	0x41cc5798	25.54277
86	0x41cb53ec	25.415977
87	0x41c0f8dd	24.121515
88	0x41c3d657	24.479658
89	0x41c7f75d	24.995783
90	0x41cb10c7	25.383192
91	0x41cbec8a	25.490498
92	0x41cbc6e5	25.472116
93	0x41cb7b63	25.435247
94	0x41c80928	25.00447
95	0x41c89d9d	25.07696
96	0x41c3ea95	24.489542
97	0x41c7c959	24.973314
98	0x41cb69a3	25.42658
99	0x41cc0398	25.501755
100	0x41cb8a18	25.442429
101	0x41cbbc7c	25.467033
102	0x41c827d7	25.019453
103	0x41c420f1	24.516085
104	0x41c061ad	24.047693
105	0x41c8110f	25.00833
106	0x41cb21c6	25.39149
107	0x41cb5aaa	25.41927
108	0x41cc0bbd	25.505732
109	0x41cbd911	25.48099
110	0x41c7fbfd	24.998041
111	0x41c16dfe	24.178707
112	0x41bfc797	23.972456
113	0x41c7b13e	24.961544
114	0x41c7d1e7	24.977491
115	0x41c78941	24.942019
116	0x41c68d90	24.819122
117	0x41c78562	24.940128
118	0x41c836fe	25.026852
119	0x41c06fdc	24.054619
120	0x41b846d2	23.03458
121	0x41bff999	23.996874
122	0x41bf9a95	23.95048
123	0x41c3c93f	24.473265
124	0x41c3ec68	24.490433
125	0x41c003a5	24.00178
126	0x41c0deb5	24.108744
127	0x41b7914e	22.94595
128	0x40e13ba8	7.0385323
129	0x41008f45	8.034978
130	0x41013f8e	8.078016
131	0x4100cc92	8.049944
132	0x4100ac7f	8.042113
133	0x41016ae3	8.088595
134	0x40fdec14	7.935068
135	0x40e09e18	7.0192986
136	0x41009d19	8.038354
137	0x4111632f	9.086715
138	0x4111e9f0	9.119614
139	0x411b3854	9.701252
140	0x41107731	9.029099
141	0x411e9919	9.912377
142	0x411c45ac	9.76701
143	0x4100adc5	8.042424
144	0x40ff0c0a	7.9702196
145	0x410f9211	8.973161
146	0x4117fd92	9.499407
147	0x4119564a	9.583567
148	0x412140a7	10.078284
149	0x4122522c	10.1450615
150	0x41103f22	9.015413
151	0x41022d35	8.136037
152	0x40fff791	7.9989705
153	0x411063b6	9.0243435
154	0x411fb28c	9.981091
155	0x4121ecdb	10.120326
156	0x411fb0b8	9.980644
157	0x411fb1fb	9.980952
158	0x4110b779	9.044793
159	0x4101d230	8.113815
160	0x40ffcafd	7.993529
161	0x41105ddb	9.022914
162	0x41200b6a	10.002787
163	0x412302ef	10.188216
164	0x411f7530	9.96611
165	0x411ce1f5	9.805165
166	0x4111549b	9.083156
167	0x41006f94	8.027241
168	0x41002d88	8.011116
169	0x410fb235	8.981008
170	0x41186506	9.524664
171	0x41173840	9.451233
172	0x4123c20e	10.234877
173	0x4122723f	10.152892
174	0x410f8583	8.970096
175	0x40f83503	7.756471
176	0x4100715b	8.027675
177	0x410f99de	8.975065
178	0x410fe18b	8.992564
179	0x4117b192	9.480852
180	0x411239a6	9.139074
181	0x411fe7cd	9.994092
182	0x411d7acd	9.842481
183	0x41002cef	8.01097
184	0x40e0741e	7.0141745
185	0x40ff727b	7.9827247
186	0x40ff299c	7.9738293
187	0x4100d068	8.05088
188	0x410118db	8.068568
189	0x4102985e	8.162199
190	0x41006315	8.02419
191	0x40e463e1	7.1371922
192	0x40801500	4.0025635
193	0x40a655e8	5.1979866
194	0x40c08ab6	6.0169325
195	0x40c1808d	6.046942
196	0x40c2685d	6.0752397
197	0x40ca6445	6.32474
198	0x409d22a7	4.91048
199	0x407f6d10	3.9910316
200	0x40a28e73	5.079889
201	0x40e0364d	7.0066285
202	0x410fff33	8.9998045
203	0x411679df	9.404754
204	0x411054c2	9.020693
205	0x4115ac65	9.3545885
206	0x40df7d84	6.9840717
207	0x40a35f00	5.1053467
208	0x40c1b38b	6.053167
209	0x4112e58f	9.181045
210	0x4121258e	10.071669
211	0x4127f24c	10.4966545
212	0x4126f6f8	10.435295
213	0x411d12f1	9.817124
214	0x4111424a	9.078684
215	0x40c286fc	6.0789776
216	0x40bec9fe	5.9621572
217	0x4110499b	9.01797
218	0x4128279c	10.50967
219	0x412f01f3	10.937976
220	0x412fbf2c	10.984173
221	0x41276989	10.463265
222	0x411862e6	9.524145
223	0x40c28d04	6.079714
224	0x40c3de8c	6.1209164
225	0x4110f066	9.058691
226	0x4127ca00	10.486816
227	0x412e1744	10.88068
228	0x412f382f	10.951217
229	0x4128487c	10.517696
230	0x4116b49c	9.419094
231	0x40c1c21d	6.0549455
232	0x40c17863	6.0459456
233	0x410e4398	8.891502
234	0x4120ca52	10.049395
235	0x412814bd	10.505063
236	0x4127ccaf	10.487472
237	0x411f088d	9.939588
238	0x4111cae7	9.112037
239	0x40c311f7	6.095943
240	0x40a2b806	5.084964
241	0x40e04d70	7.009453
242	0x410fd963	8.990573
243	0x41194686	9.579718
244	0x410ec161	8.922212
245	0x41189731	9.536912
246	0x40e1957c	7.0494976
247	0x40a6a7ca	5.207982
248	0x4081d6e4	4.057482
249	0x40a44925	5.133929
250	0x40bf569b	5.979322
251	0x40c1c9f9	6.055905
252	0x40bb643f	5.855987
253	0x40c72de7	6.2243533
254	0x409f2e74	4.9744205
255	0x40824603	4.0710464
